trained_models/that.pth (torch, 90327 bytes, 3 tensors)

cnn_model.0.weight f4 [10, 1, 67, 33]
0	0xbb8f98bd	-0.0043822215
1	0xbc24f610	-0.0100684315
2	0xbc8306b2	-0.015994404
3	0x3c87770e	0.016536262
4	0xbc5919e0	-0.013250798
5	0xbc9973f3	-0.018732047
6	0xbbb82bba	-0.005620447
7	0xbc86ec2f	-0.016470043
8	0xbc2b8c3a	-0.010470444
9	0xb9ef8bc7	-0.00045689775
10	0xbc7f7e17	-0.015594027
11	0x3c6e808e	0.014557017
12	0x3c06445c	0.008195009
13	0x3c880aae	0.016606655
14	0xbbf22808	-0.007390026
15	0xbc053585	-0.008130436
16	0xbca9426a	-0.020661552
17	0xbb17508e	-0.0023088786
18	0x3b7c1b7a	0.0038468526
19	0x3bbab93c	0.005698351
20	0xbcb9162a	-0.022593576
21	0xbc327d7b	-0.010894175
22	0x3c559050	0.013034895
23	0xbcc1c1f5	-0.023652056
24	0x3c85d4f8	0.016336903
25	0xbcc07988	-0.02349545
26	0xbc09d09c	-0.008411553
27	0x3b4f9cb1	0.0031679089
28	0xbc0b2978	-0.008493774
29	0xbb198c12	-0.0023429436
30	0xbc881c24	-0.016614981
31	0xbb793008	-0.0038023014
32	0x3c02e27a	0.0079885665
33	0x3a8f5231	0.0010934529
34	0xbc9c45cc	-0.01907625
35	0xbccd52c7	-0.025063885
36	0xbc35b8c1	-0.011091412
37	0xbc61b18e	-0.0137752425
38	0xbc8b9e15	-0.017043153
39	0x3c05706a	0.008144477
40	0xba9cc4d2	-0.0011960512
41	0xbcc5a860	-0.024128139
42	0x3c37c8d0	0.011217311
43	0xbc92985b	-0.017894914
44	0xbc296944	-0.010340039
45	0xbc52c270	-0.01286374
46	0x3c406a92	0.011744158
47	0x3bfeab07	0.007771853
48	0x3bdacb7a	0.0066770883
49	0xba07a55e	-0.0005174483
50	0xbca897d6	-0.020580214
51	0x3bfafc85	0.007659497
52	0xbc76fecf	-0.0150754
53	0xbcbfb212	-0.02340034
54	0xbc54271f	-0.01294878
55	0xbc8a5cda	-0.016889978
56	0x3c7dfd92	0.01550235
57	0x3bbffe36	0.0058591617
58	0xbc4d4e0a	-0.012530813
59	0xbcb47414	-0.022028007
60	0x3c76a89d	0.015054849
61	0xbb954856	-0.0045557423
62	0xbad78e0c	-0.0016445532
63	0xbccf2892	-0.0252879
64	0xbbbea634	-0.005818153
65	0xbc1a9a6f	-0.009436234
66	0x3ae42ad5	0.0017407784
67	0xbcaf8d49	-0.021429675
68	0xba58beec	-0.00082681957
69	0x3c798343	0.015229049
70	0xbb969b96	-0.004596184
71	0x3c1b80bd	0.009491143
72	0x3b39a3bd	0.0028326355
73	0x3c61d18b	0.013782869
74	0xbc791ad7	-0.015204153
75	0x3a4fe92e	0.000793117
76	0xbb8bf38e	-0.0042709773
77	0x3c4c3f74	0.0124663
78	0xbc50ed14	-0.012751836
79	0xbb281ad0	-0.0025650747
80	0xbccb551a	-0.024820853
81	0xbbbe11f7	-0.0058004814
82	0xbc60157f	-0.013677
83	0x3c0603e3	0.008179638
84	0xbcb1c952	-0.021702442
85	0xbc781192	-0.015140908
86	0x3c730f1b	0.014835144
87	0x3c2be9e2	0.010492774
88	0xbc9ab797	-0.01888637
89	0x3888c917	6.522441e-05
90	0xbcc5c40a	-0.02414133
91	0xbc1c21ff	-0.00952959
92	0x3c84aa45	0.016194472
93	0xbb98d7f0	-0.0046644136
94	0x3a8dec7d	0.0010827925
95	0xba29f70a	-0.000648365
96	0xbc825380	-0.015908957
97	0x3b00c0d7	0.0019646192
98	0x3c2eca7e	0.010668395
99	0xbc376ca1	-0.011195333
100	0x3c35bf3c	0.011092957
101	0xbc8d3813	-0.017238652
102	0x3bc8e45a	0.0061307373
103	0xbc133c8c	-0.0089866035
104	0xbcc55612	-0.024088893
105	0x3c0d00da	0.00860616
106	0x3bc377aa	0.005965193
107	0xbb8eb288	-0.0043547787
108	0x3bb2c71b	0.005455864
109	0xbc295c16	-0.010336896
110	0xbc898440	-0.016786695
111	0x3b89f9bd	0.0042106793
112	0xba92c251	-0.0011196827
113	0x3a36ddb7	0.0006975787
114	0x3c27d77e	0.010244248
115	0xbc580b1f	-0.013186245
116	0xbc9e7ffe	-0.01934814
117	0x3bbf4050	0.005836524
118	0xbb473021	-0.0030393677
119	0xbcad7404	-0.021173485
120	0x3b111d8b	0.0022142853
121	0x3c81d009	0.01584627
122	0xbaabbbdc	-0.0013102251
123	0x3c2b04e4	0.010438178
124	0xbc4eae25	-0.0126147615
125	0xbc8d10a4	-0.017219849
126	0xbcbc328e	-0.022973325
127	0xbc8c8397	-0.01715259
128	0x3bf64641	0.007515699
129	0xbc454858	-0.012041174
130	0xbb5d3de5	-0.0033758816
131	0xbb38864c	-0.002815622
132	0xbc556e00	-0.013026714
133	0x3bee3f69	0.0072707427
134	0x3bbb8aaa	0.005723317
135	0xbc056513	-0.008141774
136	0xbc99dc47	-0.018781794
137	0x39c5ed78	0.00037751696
138	0x3bebf8c4	0.007201286
139	0x3bc7be55	0.0060956874
140	0xbb3e6b99	-0.0029055832
141	0x3c1e5e44	0.009666029
142	0x3c418c75	0.011813273
143	0xbbaa7e5a	-0.0052030506
144	0xbccace21	-0.024756493
145	0x3b970893	0.0046091764
146	0x3c79e5f3	0.015252578
147	0xbccdb996	-0.025112908
148	0xbbd564b3	-0.0065122484
149	0x3c6fd9a9	0.014639297
150	0xbc271d9d	-0.010199931
151	0xbabe1438	-0.0014501875
152	0xbaae0fb4	-0.0013279826
153	0xbc850ff2	-0.016242955
154	0xbc588420	-0.013215095
155	0x3c0ff648	0.008786745
156	0xbc24815d	-0.010040608
157	0x3b12c01e	0.0022392343
158	0xbc25b61b	-0.010114218
159	0x3c38dbe0	0.011282891
160	0x3c8a4fe8	0.016883805
161	0x3c33ed0c	0.010981809
162	0xbc6c5334	-0.014424134
163	0x3c7b988b	0.015356193
164	0x3b9393d9	0.004503709
165	0x3c44d42f	0.012013479
166	0x3b69a59e	0.0035651694
167	0xbc25af51	-0.0101125995
168	0x3c5b3d73	0.01338135
169	0xba7f69f1	-0.00097432645
170	0x3bec5b79	0.007213053
171	0xbbb460fc	-0.0055047255
172	0xbca4cbb9	-0.020116674
173	0xbbf5273a	-0.007481483
174	0x3c859708	0.016307369
175	0x3bd478a4	0.006484108
176	0x3c8462a4	0.016160317
177	0xbc074b20	-0.008257657
178	0xbc209959	-0.009802186
179	0xbcc208c7	-0.023685826
180	0xbc9b4d02	-0.018957619
181	0xbca6cfd3	-0.02036277
182	0xbc97afaa	-0.01851638
183	0xbc822b77	-0.015889866
184	0xbc3e8131	-0.011627481
185	0xbc47a57e	-0.0121854525
186	0xbbac05e1	-0.0052497243
187	0xbc8d6af3	-0.017262911
188	0x3bc9aab2	0.0061543817
189	0xbc3b2673	-0.011422741
190	0xbbe06364	-0.006847786
191	0x3c8b64d3	0.01701585
192	0xbb29251b	-0.002580947
193	0xbcb5c53a	-0.022188772
194	0xbb52b787	-0.0032152848
195	0x3c3bb417	0.011456511
196	0xbc8b0e45	-0.016974578
197	0x3c2daa59	0.010599696
198	0x3b6edb8e	0.0036446783
199	0xbcb67dfb	-0.022276869
200	0xbc7ec757	-0.015550456
201	0xbcac15d7	-0.021006508
202	0xbccaa341	-0.024736049
203	0x3c361ac6	0.011114782
204	0xbb9e8e37	-0.0048387307
205	0x39e1fc29	0.00043103218
206	0xbca54898	-0.020176217
207	0x3c075410	0.008259788
208	0x3aacd22c	0.0013185195
209	0x3af04269	0.0018330339
210	0xbb85eec4	-0.004087301
211	0xbbe82a9f	-0.007085159
212	0x3c0a9175	0.008457531
213	0xbb8554c0	-0.004068941
214	0x3c1fe11f	0.009758263
215	0x3c01641f	0.007897406
216	0xbbe9eb97	-0.00713868
217	0x3bd322e0	0.0064433664
218	0xb91d4244	-0.00014997373
219	0x3c7a0c4e	0.015261723
220	0xbb1ed817	-0.0024237686
221	0xbc348916	-0.011019012
222	0xbca331d7	-0.019921226
223	0x3c349144	0.011020962
224	0x3bcb5980	0.0062057376
225	0xbcb4355d	-0.021998102
226	0xbbeba68f	-0.007191486
227	0x3c796721	0.015222342
228	0x3c2cdfc1	0.010551394
229	0xbb4c5d78	-0.0031183641
230	0x3c682f5a	0.014171446
231	0xbc7f3856	-0.015577396
232	0x3c8526fc	0.01625394
233	0xbbda3154	-0.0066587124
234	0x3c43d0d3	0.011951643
235	0xbc9958d3	-0.018719113
236	0x3be29d85	0.0069157504
237	0x3c11c3e3	0.008896801
238	0x3bf0c297	0.0073474157
239	0xbcabd6ef	-0.020976512
240	0x3a1025dd	0.0005498806
241	0xbc71dc42	-0.014761986
242	0xbaeaf7c5	-0.0017926624
243	0x3c86996c	0.01643058
244	0xbca96385	-0.020677337
245	0xbcac6c74	-0.021047808
246	0xbc688a04	-0.014193062
247	0xbc0898c4	-0.008337203
248	0xbaac8d7d	-0.0013164725
249	0xbc5ad4f4	-0.013356436
250	0x3b570c8d	0.0032813877
251	0xbc742fab	-0.014903943
252	0x3c824979	0.015904175
253	0xbc2a20b3	-0.010383773
254	0xbb19192f	-0.0023360958
255	0x3c652ef5	0.013988246

cnn_model.0.bias f4 [10]
0	0x3c4992ee	0.012303097
1	0xbb78d164	-0.0037966603
2	0x3b98a96b	0.004658868
3	0x3ba33497	0.0049806344
4	0x3c36897f	0.01114118
5	0xbc5439a6	-0.012953198
6	0xbc8838ac	-0.016628586
7	0xbcbc6815	-0.022998849
8	0x3ced2f27	0.028953148
9	0x3c9ba88b	0.019001266

cnn_model.2.weight f4 [1, 10, 1, 1]
0	0x3da9af1a	0.08285351
1	0x3e002dbe	0.1251745
2	0x3ea2faa9	0.31831864
3	0xbe3f99c2	-0.18710998
4	0x3ea1d8bf	0.31610677
5	0x3e8c2b1e	0.27376646
6	0xbe7194f1	-0.23591973
7	0xbd89a3c7	-0.06720691
8	0x3d8d31ea	0.06894286
9	0xbd521d80	-0.051297665
